Model: "sequential_63"
_________________________________________________________________
Layer (type)                 Output Shape              Param #   
=================================================================
dense_235 (Dense)            (None, 512)               401920    
_________________________________________________________________
dense_236 (Dense)            (None, 256)               131328    
_________________________________________________________________
dense_237 (Dense)            (None, 128)               32896     
_________________________________________________________________
dense_238 (Dense)            (None, 32)                4128      
_________________________________________________________________
dense_239 (Dense)            (None, 128)               4224      
_________________________________________________________________
dense_240 (Dense)            (None, 256)               33024     
_________________________________________________________________
dense_241 (Dense)            (None, 512)               131584    
_________________________________________________________________
dense_242 (Dense)            (None, 784)               402192    
=================================================================
Total params: 1,141,296
Trainable params: 1,141,296
Non-trainable params: 0
_________________________________________________________________
Epoch 1/50
48/48 [==============================] - 1s 10ms/step - loss: 0.0727 - val_loss: 0.0654
Epoch 2/50
48/48 [==============================] - 0s 8ms/step - loss: 0.0544 - val_loss: 0.0518
…
