Model: "model_1"
_________________________________________________________________
Layer (type)                 Output Shape              Param #   
=================================================================
input_2 (InputLayer)         [(None, 32, 32, 3)]       0         
_________________________________________________________________
conv2d_5 (Conv2D)            (None, 32, 32, 32)        896       
_________________________________________________________________
max_pooling2d_2 (MaxPooling2 (None, 16, 16, 32)        0         
_________________________________________________________________
conv2d_6 (Conv2D)            (None, 16, 16, 16)        4624      
_________________________________________________________________
max_pooling2d_3 (MaxPooling2 (None, 8, 8, 16)          0         
_________________________________________________________________
conv2d_7 (Conv2D)            (None, 8, 8, 16)          2320      
_________________________________________________________________
up_sampling2d_2 (UpSampling2 (None, 16, 16, 16)        0         
_________________________________________________________________
conv2d_8 (Conv2D)            (None, 16, 16, 32)        4640      
_________________________________________________________________
up_sampling2d_3 (UpSampling2 (None, 32, 32, 32)        0         
_________________________________________________________________
conv2d_9 (Conv2D)            (None, 32, 32, 3)         867       
=================================================================
Total params: 13,347
Trainable params: 13,347
Non-trainable params: 0
_________________________________________________________________
Epoch 1/100
391/391 [==============================] - 3s 7ms/step - loss: 0.5853 - val_loss: 0.5694
Epoch 2/100
391/391 [==============================] - 2s 6ms/step - loss: 0.5664 - val_loss: 0.5659
…
