Model: "model_11"
_________________________________________________________________
Layer (type)                 Output Shape              Param #   
=================================================================
input_8 (InputLayer)         [(None, 28, 28, 1)]       0         
_________________________________________________________________
conv2d_213 (Conv2D)          (None, 28, 28, 32)        320       
_________________________________________________________________
max_pooling2d_167 (MaxPoolin (None, 14, 14, 32)        0         
_________________________________________________________________
conv2d_214 (Conv2D)          (None, 14, 14, 16)        4624      
_________________________________________________________________
max_pooling2d_168 (MaxPoolin (None, 7, 7, 16)          0         
_________________________________________________________________
conv2d_215 (Conv2D)          (None, 7, 7, 8)           1160      
_________________________________________________________________
max_pooling2d_169 (MaxPoolin (None, 4, 4, 8)           0         
_________________________________________________________________
conv2d_216 (Conv2D)          (None, 4, 4, 8)           584       
_________________________________________________________________
up_sampling2d_20 (UpSampling (None, 8, 8, 8)           0         
_________________________________________________________________
conv2d_217 (Conv2D)          (None, 8, 8, 16)          1168      
_________________________________________________________________
up_sampling2d_21 (UpSampling (None, 16, 16, 16)        0         
_________________________________________________________________
conv2d_218 (Conv2D)          (None, 14, 14, 32)        4640      
_________________________________________________________________
up_sampling2d_22 (UpSampling (None, 28, 28, 32)        0         
_________________________________________________________________
conv2d_219 (Conv2D)          (None, 28, 28, 1)         289       
=================================================================
Total params: 12,785
Trainable params: 12,785
Non-trainable params: 0
_________________________________________________________________
Epoch 1/35
469/469 [==============================] - 3s 7ms/step - loss: 0.1877 - val_loss: 0.1292
Epoch 2/35
469/469 [==============================] - 3s 6ms/step - loss: 0.1212 - val_loss: 0.1135
…
